serving/resnet_handwriting.tflite (tflite, 414988 bytes, 8 tensors)

conv2d_10/Conv2D_bias f4 [16]
0	0x3d37e67b	0.044897538
1	0x3e5574b0	0.20845294
2	0x3b5d7e65	0.003379726
3	0x3d6cc46e	0.057804517
4	0xbb357e06	-0.0027693524
5	0xbe07ce08	-0.13262188
6	0x3e2e71eb	0.17035644
7	0xbe1979b3	-0.14987831
8	0x3cf0e786	0.029407274
9	0xbdb92978	-0.09041113
10	0x3e55b2d8	0.20869005
11	0xbd8da606	-0.06916432
12	0x3d7965a2	0.06088794
13	0xbd339c4f	-0.04385024
14	0x3da2560b	0.07926568
15	0xbe42569e	-0.18978354

conv2d_10/kernel f4 [16, 3, 3, 8]
0	0xbe9816cf	-0.29704902
1	0xbe8fc184	-0.28077328
2	0x3f38b31b	0.72148293
3	0xbf0431d3	-0.51638526
4	0x3e3e4d2e	0.18584129
5	0xbeb0cde7	-0.3453209
6	0xbf316cb8	-0.69306517
7	0xbeb5ce03	-0.35508737
8	0x3d94499b	0.07240602
9	0xbd97c4ce	-0.074105844
10	0x3e56d11f	0.20978211
11	0xbd3322f2	-0.0437345
12	0x3db19c81	0.08672429
13	0xbe91039c	-0.28323066
14	0xbf044dfc	-0.51681495
15	0xbe8949df	-0.26814172
16	0x3e995fd5	0.29955927
17	0xbe061961	-0.13095619
18	0xbe86b0de	-0.26306814
19	0x3e216eec	0.1576497
20	0xbf02522d	-0.5090664
21	0xbd4ca3ea	-0.049961008
22	0xbe797c0b	-0.24363725
23	0x3db352c7	0.08756023
24	0x3dcb9050	0.09939635
25	0x3e6bf264	0.23041683
26	0x3f2005e7	0.62509006
27	0xbe3d0e46	-0.18462476
28	0x3cf1279f	0.029437838
29	0xbeaf6635	-0.34257665
30	0xbdbbd4c3	-0.091714405
31	0xbe250b21	-0.16117527
32	0xbe01bca2	-0.12669614
33	0xbce04f78	-0.027381644
34	0x3f013df5	0.50485164
35	0xbf0f5eff	-0.5600433
36	0x3d68a450	0.056797326
37	0xbee23cc0	-0.44186974
38	0xbe95b4b8	-0.2923944
39	0x3d902673	0.070385836
40	0xbeabdf6b	-0.33568892
41	0xbede61c4	-0.43433964
42	0xbdee0315	-0.116216816
43	0xbedd1957	-0.43183395
44	0xbebb5462	-0.36587816
45	0xbf04091d	-0.51576406
46	0xbec353de	-0.38149923
47	0x3ed2b97b	0.41157135
48	0x3eb44a52	0.35212952
49	0x3ecebcab	0.40378317
50	0x3e6351ef	0.22199224
51	0x3ec0359b	0.37540898
52	0x3dcac04e	0.098999605
53	0xbe1cb829	-0.15304627
54	0xbc163748	-0.0091684535
55	0x3d625c0b	0.05526356
56	0x3e11de23	0.14244895
57	0x3dd0b0d4	0.10189977
58	0x3e82f497	0.25577232
59	0xbdf57bb4	-0.11986485
60	0x3dc182ba	0.09448762
61	0xbdd62311	-0.10455907
62	0xbeb3bc45	-0.35104576
63	0xbe120ea0	-0.14263391
64	0xbcce4342	-0.025178555
65	0x3d98c4a2	0.0745938
66	0xbda42715	-0.08015267
67	0xbf2dcae5	-0.6788772
68	0xbe1e6417	-0.15467869
69	0xbed26cb5	-0.41098562
70	0xbeab73ea	-0.33486873
71	0x3e5466f3	0.20742397
72	0x3e63f036	0.22259602
73	0x3d264643	0.04059435
74	0xbf85c62b	-1.0451101
75	0x3e51e1b2	0.20496252
76	0xbe00949a	-0.12556687
77	0xbdcf8643	-0.1013303
78	0xbeebf108	-0.4608233
79	0xbd2706d2	-0.04077799
80	0x3c97df33	0.018539047
81	0xbdfe65a2	-0.12421729
82	0xbf9350e9	-1.1509067
83	0xbe15dd03	-0.1463509
84	0xbe998e04	-0.29991162
85	0xbe10b464	-0.14131314
86	0xbe7f4e61	-0.24932243
87	0x3def74ca	0.116921976
88	0xbee9e995	-0.4568602
89	0xbe04650d	-0.12929173
90	0xbe950bf6	-0.29110688
91	0xbf2f5832	-0.6849395
92	0xbeaac0e8	-0.333503
93	0xbeec5913	-0.46161708
94	0xbde1dfe0	-0.11029029
95	0xbe64fef6	-0.22362885
96	0x3e8e6bf1	0.27816728
97	0x3eb6bfb5	0.35693136
98	0xbf902ff2	-1.1264632
99	0x3ed23891	0.41058782
100	0x3e8be05d	0.27319613
101	0xbe73dbae	-0.2381427
102	0xbdfd638d	-0.123725034
103	0x3e3a86fe	0.18215558
104	0xbe0208a7	-0.12698613
105	0xbd3b9bf4	-0.045803025
106	0xbf9209a9	-1.1409198
107	0x3db0c384	0.08631042
108	0xbe2c1c11	-0.16807581
109	0xbe1ec37a	-0.15504256
110	0x3d760db6	0.06007167
111	0x3e468e03	0.1939011
112	0xbde4e739	-0.11176915
113	0xbddd0ae5	-0.107930936
114	0xbf1f59d8	-0.62246466
115	0xbead2eb8	-0.33824706
116	0xbe930f6f	-0.28722712
117	0xbe2fe6b8	-0.17177856
118	0xbe0db441	-0.13838293
119	0xbdc23918	-0.09483546
120	0x3f0ee985	0.5582507
121	0x3e6e9a6b	0.23301093
122	0xbf8937c4	-1.0720143
123	0x3e4aeaa9	0.19816078
124	0x3e2446ef	0.16042684
125	0xbdf31437	-0.1186909
126	0x3eaeb504	0.3412248
127	0x3f1a0c99	0.6017547
128	0xbd7c0aa7	-0.061533596
129	0xbe898acc	-0.26863706
130	0xbf80806c	-1.0039191
131	0x3db0ccb2	0.086327925
132	0xbe9e21d7	-0.30885193
133	0xbbd0756a	-0.006361653
134	0x3eb43e2b	0.3520368
135	0x3eccc027	0.3999035
136	0xbdd69061	-0.10476757
137	0xbdadb5a1	-0.084819086
138	0xbf7e27b8	-0.99279356
139	0xbcf43d1d	-0.029814297
140	0xbf34b154	-0.7058308
141	0xbd62f246	-0.05540683
142	0xbe17b10f	-0.14813636
143	0xbe48b108	-0.19598782
144	0xbebdc3d4	-0.37063468
145	0xbda1bfb6	-0.07897894
146	0x3fa984d0	1.3243656
147	0xbf548cf5	-0.83027583
148	0x3f180af7	0.5939173
149	0xbf17533a	-0.5911137
150	0xbe9f9f94	-0.31176436
151	0xbd3bf1a9	-0.045884762
152	0xbdd85963	-0.10563924
153	0xbdcdeb85	-0.100546874
154	0x3f1700fa	0.58985865
155	0xbe5d1cdd	-0.21593042
156	0x3dc52b03	0.096273445
157	0xbeb7f462	-0.35928637
158	0xbecf6f0f	-0.40514418
159	0xbde4c76e	-0.11170851
160	0x3e0d5de2	0.13805345
161	0xbe556be7	-0.20841943
162	0xbe505974	-0.20346624
163	0xbdf3d8ac	-0.11906561
164	0xbead723d	-0.3387622
165	0xbf01a9f0	-0.5064993
166	0xbe2fba22	-0.17160848
167	0x3e9d6ffb	0.30749497
168	0xbbad1de1	-0.005283103
169	0x3e3bef90	0.18353105
170	0x3ef5add7	0.47984192
171	0xbe2be861	-0.16787864
172	0xbd821217	-0.063511066
173	0xbe9ce4e3	-0.30643377
174	0xb989a9ea	-0.00026257272
175	0x3e64111e	0.22272155
176	0xbdb80dc5	-0.08987001
177	0x3ca3b26b	0.019982537
178	0x3e8123fd	0.2522277
179	0xbe8b2521	-0.27176765
180	0x3dcd7331	0.10031737
181	0xbe47a81e	-0.19497725
182	0xbe1dd5ef	-0.1541364
183	0x3db50c47	0.08840232
184	0xbe9e76fc	-0.30950153
185	0xbedc0b78	-0.429775
186	0xbdbd000b	-0.09228524
187	0xbed3f204	-0.4139558
188	0xbeaa1a47	-0.33223173
189	0xbf49717b	-0.7868878
190	0xbf011a1d	-0.5043047
191	0x3f07bac5	0.5301936
192	0x3ec3b59e	0.382245
193	0x3ec587f3	0.38580284
194	0xbe0187f7	-0.12649523
195	0x3ea81c34	0.32834017
196	0xbe1449f8	-0.14481342
197	0xbd87c8e7	-0.06630116
198	0xbe7cd0bf	-0.24689005
199	0xbdfa051f	-0.12208008
200	0x3e18cacf	0.14921115
201	0x3ec3b90e	0.38227123
202	0x3d95bbb3	0.073111914
203	0xbe6781b1	-0.22608067
204	0x3bbfc208	0.0058519877
205	0xbd4d92a1	-0.050188664
206	0xbe8b9742	-0.27263838
207	0x3de95a6e	0.11394201
208	0xbdb8f38e	-0.09030829
209	0xbe36b0f9	-0.17840947
210	0x3ad3bcb8	0.0016154265
211	0xbf6b1af5	-0.9183801
212	0xbefd4ebe	-0.49474138
213	0xbf191419	-0.5979629
214	0xbe8e92b1	-0.27846292
215	0x3f0018f2	0.50038064
216	0x3e1a8569	0.15089954
217	0x3e892da3	0.2679263
218	0xbe32bfdb	-0.17456
219	0xbe6622de	-0.22474238
220	0xbe799950	-0.2437489
221	0xbe30c31f	-0.17261933
222	0xbe13e24c	-0.14441794
223	0xbe8a1bb5	-0.26974264
224	0x3cd91512	0.026499305
225	0xbde1b357	-0.110205345
226	0x3e0f5080	0.13995552
227	0xbeae901b	-0.3409432
228	0xbdeecc16	-0.1166002
229	0xbe654ffc	-0.22393793
230	0xbe5e5290	-0.21711183
231	0xbf096d5c	-0.53682494
232	0xbda74d99	-0.081690975
233	0x3dfb42d4	0.12268606
234	0x3e28ab9a	0.16471711
235	0x3e08112d	0.13287802
236	0x3e16e884	0.14737135
237	0xbe138e37	-0.1440972
238	0xbe5ca3ef	-0.2154691
239	0xbec95302	-0.39321142
240	0x3e937f1a	0.28807908
241	0x3e52a434	0.20570451
242	0x3ddd467a	0.10804458
243	0x3e3dec60	0.18547201
244	0x3db1b340	0.08676767
245	0xbde22d75	-0.110438265
246	0xbc02acf9	-0.00797581
247	0xbed6bc8d	-0.41940728
248	0x3e367c3c	0.17820829
249	0x3e190c42	0.14946082
250	0x3d338b23	0.043833863
251	0xbc9d10cf	-0.019173054
252	0x3d9badec	0.07601532
253	0x3d8093ea	0.06278212
254	0xbdd22857	-0.102616005
255	0xbe0d5a60	-0.13804007

conv2d_9/Conv2D_bias f4 [8]
0	0xbb390403	-0.002823115
1	0xb914d248	-0.00014192716
2	0x3d47623c	0.048677668
3	0x3d9f2406	0.07770543
4	0xbe1beca3	-0.15226988
5	0xbe99f610	-0.30070543
6	0xbe897d8e	-0.26853603
7	0x3d765069	0.06013528

conv2d_9/kernel f4 [1, 3, 3, 8]
0	0x3ed33dc8	0.41258073
1	0x3e5a2ef5	0.21306975
2	0xbf8636fe	-1.0485532
3	0xbefb7109	-0.49109676
4	0xbf18d8cf	-0.59705824
5	0x3eba1d72	0.3635059
6	0x3edd521a	0.432267
7	0x3d68a692	0.05679948
8	0x3f002a66	0.50064695
9	0x3de1780a	0.11009224
10	0xbf923c9f	-1.142475
11	0x3f22b4cf	0.6355714
12	0xbee199c3	-0.44062623
13	0x3e0cdb69	0.13755573
14	0x3d96cd1a	0.07363339
15	0x3e90c4a8	0.28275037
16	0x3e8e7dcb	0.27830347
17	0xbe61cdc8	-0.22051156
18	0xbf5fda7e	-0.8744277
19	0x3f21bf01	0.63182074
20	0x3e38b594	0.18038017
21	0x3f02d28c	0.5110252
22	0x3f16fb50	0.5897722
23	0x3e7cb10a	0.2467691
24	0x3da3e885	0.08003334
25	0xbdbbebab	-0.091758095
26	0x3e864ec8	0.2623198
27	0xbf0fe5a1	-0.5620976
28	0x3e2b2cba	0.1671628
29	0x3e92d229	0.28675964
30	0x3f29db04	0.66349816
31	0x3f07f478	0.53107405
32	0x3ef5ec62	0.48031908
33	0x3e279e56	0.16368994
34	0x3e881655	0.26579538
35	0x3f101768	0.56285715
36	0x3e8d93a2	0.27651697
37	0x3dc4653d	0.09589622
38	0x3eb48004	0.35253918
39	0x3ebff54a	0.37491828
40	0x3e45e99b	0.19327395
41	0x3ec8cc00	0.3921814
42	0x3e0eb0e8	0.13934672
43	0x3f42c97d	0.76088697
44	0x3ef7eac7	0.48421308
45	0x3eef1de2	0.46702486
46	0x3e83f8b3	0.2577568
47	0xbf1eaefd	-0.6198576
48	0x3f02f12e	0.5114926
49	0x3d941b28	0.07231742
50	0x3f25e013	0.64795035
51	0xbf340508	-0.7032018
52	0x3f153594	0.5828488
53	0x3ed43d60	0.41453075
54	0x3ede7ccd	0.4345459
55	0x3f6151da	0.8801552
56	0x3e99d614	0.3004614
57	0x3f1a3bcf	0.6024751
58	0x3f1f6039	0.622562
59	0x3df7dde1	0.12102867
60	0x3eba096d	0.36335316
61	0x3d4d30f8	0.05009553
62	0xbe52d08e	-0.2058737
63	0xbe6899f7	-0.22714983
64	0x3e56a9e1	0.20963241
65	0x3f327c74	0.6972115
66	0x3f1d224e	0.6138047
67	0xbd6e79bd	-0.058221567
68	0x3eafb63e	0.34318727
69	0x3ebb3423	0.36563215
70	0xbd47189c	-0.048607454
71	0xbf7dcc0b	-0.9913947

dense_4/MatMul_bias f4 [32]
0	0x3d1f5bce	0.03890591
1	0xbcd39f5e	-0.025832828
2	0xbd19254f	-0.037389096
3	0x3dd2c767	0.10291939
4	0xbd3ef9d1	-0.046624962
5	0x3e209ec2	0.15685561
6	0xbdb7ba55	-0.08971087
7	0x3baae10c	0.005214816
8	0x3cc1e975	0.023670891
9	0xbd61e823	-0.055153023
10	0x3e093caf	0.13402055
11	0xbd8ad7ac	-0.067794174
12	0x3d658d93	0.05604322
13	0x3e551f48	0.20812714
14	0x3d6d9c86	0.0580106
15	0x3e247b0a	0.1606256
16	0x3e907f1b	0.28221974
17	0xbc20fe07	-0.00982619
18	0x3e02bfc4	0.12768465
19	0x3de3414a	0.11096437
20	0xbd76ffb6	-0.06030246
21	0x3c9ff449	0.019525664
22	0x3c1c4d08	0.00953985
23	0x3d548d58	0.05189261
24	0xbe1cb556	-0.15303549
25	0xbd80ed47	-0.06295257
26	0xbe294fc9	-0.16534342
27	0x3cdab9ee	0.026699986
28	0xbc8d7da3	-0.017271822
29	0xbe3c4024	-0.18383843
30	0x3d960e6f	0.07326972
31	0x3d66879f	0.056281682

dense_4/kernel/transpose f4 [32, 3136]
0	0x3d9fa0be	0.07794331
1	0xbbe2ff9a	-0.0069274427
2	0x3dcf19ca	0.10112341
3	0xbb3d7120	-0.002890654
4	0x3d083cf4	0.033261254
5	0x3dbce926	0.09224157
6	0xbced6da8	-0.028982952
7	0x3d4664ca	0.048435964
8	0x3cf52560	0.029925048
9	0xbd07fb15	-0.033198435
10	0x3c7c36c4	0.0153939165
11	0x3c26333f	0.010144054
12	0xbc5d64e2	-0.013512822
13	0x3a722e88	0.0009238501
14	0x3c5e8528	0.013581552
15	0x3d86651b	0.06562253
16	0x3d930c55	0.071800865
17	0x3dc205e9	0.094737835
18	0x3dcf994b	0.1013666
19	0x3d059fb5	0.03262301
20	0x3d4f7097	0.050644483
21	0x3d0f6546	0.03500869
22	0x3bb5fbfe	0.0055537215
23	0x3bdc1271	0.0067160656
24	0x3e1fc7a3	0.15603499
25	0x3d840a17	0.06447237
26	0xbc6001d2	-0.013672309
27	0x3d6a0fe6	0.05714407
28	0x3da52f10	0.08065617
29	0xbd468566	-0.048467062
30	0x3d4ffee3	0.05078019
31	0xbcd23921	-0.025662007
32	0x3deab5f0	0.11460483
33	0x3dc089a7	0.09401255
34	0x3d452514	0.048131064
35	0xbd0f0817	-0.034919824
36	0x3e0c5d24	0.13707405
37	0x3d6ee5d5	0.058324654
38	0x3d085aef	0.033289846
39	0x3b80fdb4	0.003936494
40	0x3e378ab4	0.17924005
41	0x3d38c136	0.045106135
42	0x3d1d5003	0.038406383
43	0x3c7cb2db	0.015423502
44	0x3d237b7b	0.039912682
45	0xbd9b0708	-0.075697005
46	0x3da2fe2e	0.07958637
47	0x3c131a36	0.008978417
48	0x3d8b8f13	0.068143986
49	0x3d4f812d	0.0506603
50	0x3e0ecb93	0.13944845
51	0x3d023dc5	0.03179719
52	0x3cfcb5f8	0.030848488
53	0x3d3a1c4b	0.04543714
54	0x3c5ecd64	0.013598774
55	0x3c3c20cb	0.011482428
56	0x3e84f2e9	0.25966576
57	0xbcc974b4	-0.024591781
58	0x3df38297	0.118901424
59	0x3de26a5f	0.11055445
60	0x3dac72da	0.08420344
61	0xbc8ec8f9	-0.017429816
62	0x3c2f4069	0.010696509
63	0x3d5a257a	0.053258397
64	0x3daf51ef	0.085605495
65	0x3da5a041	0.08087207
66	0x3db594c7	0.08866268
67	0x3cb76984	0.022389181
68	0x3d31afd7	0.043380585
69	0x3dc5d681	0.09660054
70	0x3d473935	0.04863854
71	0x3d20bb93	0.039241385
72	0x3e2dec2b	0.16984622
73	0x3d25bb46	0.0404618
74	0x3d98ff19	0.07470531
75	0xbc917c49	-0.01775946
76	0x3d86c34f	0.06580221
77	0x3dde05dd	0.10840962
78	0xbd2098d6	-0.039208256
79	0xbc31ee33	-0.010860014
80	0x3d76cc52	0.06025345
81	0x3d920216	0.07129304
82	0x3dcf3ee3	0.101194166
83	0x3cccc2a2	0.024995152
84	0xbdc59364	-0.09647253
85	0x3d917f96	0.07104413
86	0xbc13bbae	-0.009016914
87	0xbd35d659	-0.04439387
88	0x3e5f59a0	0.21811533
89	0xbd088835	-0.033333022
90	0xbd3ac3ab	-0.04559676
91	0xbcdcc3ad	-0.026948774
92	0xbb42f532	-0.0029748199
93	0xbdd059ca	-0.10173376
94	0x3ccd9f95	0.025100509
95	0xbd7a8549	-0.061162267
96	0xbcef31e8	-0.029198602
97	0x3dc3b6d4	0.09556356
98	0x3cb6df10	0.022323161
99	0xbcad8e3a	-0.021185983
100	0xbe3616fa	-0.17782202
101	0xbdbe378c	-0.092879385
102	0xbc108727	-0.008821285
103	0xbe06ae1c	-0.13152355
104	0x3e5ed624	0.21761376
105	0xbd6d776c	-0.057975218
106	0xbd4d6fc6	-0.050155424
107	0x3c917c2b	0.017759403
108	0xbe1b04c1	-0.15138532
109	0x3c09ce33	0.008410978
110	0x3c1337df	0.008985489
111	0xbdefb429	-0.11704285
112	0xbca0ddf3	-0.019637084
113	0x3d4e0145	0.05029418
114	0xbe0c69e2	-0.13712266
115	0xbe1113e3	-0.14167742
116	0xbe421c66	-0.18956146
117	0xbe21020f	-0.15723442
118	0x3d4ab8c2	0.049492605
119	0xbdac9802	-0.08427431
120	0x3d8a3702	0.06748773
121	0xbce9de69	-0.028548436
122	0xbd8a8435	-0.06763498
123	0xbd3d3c30	-0.046199977
124	0xbdcd6b5a	-0.10030241
125	0xbb87b84a	-0.004141842
126	0xbcfd90d1	-0.030952843
127	0xbdc98872	-0.09840478
128	0xbdd1b32a	-0.10239251
129	0x3cb4a67f	0.022052048
130	0xbe0442e0	-0.12916136
131	0xbd8ce7e8	-0.0688017
132	0xbd78ada1	-0.06071246
133	0xbdb5503e	-0.088531956
134	0x3ca4b186	0.020104181
135	0xbd70da5d	-0.058801997
136	0x3a40ed06	0.0007359538
137	0xbdaab953	-0.08336129
138	0x3cb1c21c	0.021699004
139	0x39c87851	0.00038236615
140	0xbd12a981	-0.035806183
141	0xbddba4cd	-0.10724793
142	0x3d7dafcf	0.061935242
143	0x3c04dea0	0.008109719
144	0xbd7f6ec8	-0.06236151
145	0xbd60b4a1	-0.05485976
146	0xbd12d7be	-0.03585028
147	0xbd710683	-0.0588441
148	0xbdc6849d	-0.09693263
149	0xbdb7b6f4	-0.089704424
150	0xbd4e3e96	-0.050352655
151	0xbd74ca81	-0.059763435
152	0xbc93169b	-0.017955115
153	0xbdb04c7e	-0.0860834
154	0x3badc399	0.005302858
155	0x3d53eed2	0.05174143
156	0x3d46de40	0.048551798
157	0x3da4de4a	0.08050211
158	0x3d4d71eb	0.05015747
159	0xbd5f0f1a	-0.05445776
160	0xbd115bc3	-0.0354879
161	0x3c97551a	0.018473197
162	0xbdb866e4	-0.09004
163	0xbd172d46	-0.03690841
164	0xbd9d6489	-0.07685191
165	0x3d6e2d9a	0.058148958
166	0x3d547eab	0.051878612
167	0xbd4a16ad	-0.04933803
168	0xbd4d3ae0	-0.050104976
169	0x3d5b7bf7	0.05358502
170	0xbd50ce2c	-0.05097787
171	0xbd81377e	-0.063094124
172	0x3d7f1581	0.062276367
173	0x3c912986	0.017719995
174	0xbc48d025	-0.012256657
175	0x3d030280	0.031984806
176	0xbd978c6f	-0.073998325
177	0xbd0ae27c	-0.0339074
178	0xbd61a417	-0.05508813
179	0xb9abb499	-0.00032750217
180	0xbcfb7733	-0.030696487
181	0xbc4aa991	-0.012369529
182	0x3d836307	0.06415372
183	0x3d08719d	0.033311475
184	0xbdb7de2d	-0.089779235
185	0xbc6db59f	-0.014508634
186	0xbcc1dfa4	-0.02366621
187	0x3b1137ef	0.0022158583
188	0x3d555a7c	0.052088246
189	0x3e012eed	0.12615557
190	0x3d21dbb5	0.03951617
191	0x3d4167b2	0.047218032
192	0xbb422624	-0.0029624784
193	0xbd093b2b	-0.033503693
194	0x3b8faecc	0.004384851
195	0xbcc5c73d	-0.024142856
196	0xbd1769f6	-0.036966287
197	0xbcf211f3	-0.029549574
198	0x3dee1225	0.116245545
199	0xbc4f8291	-0.012665407
200	0xbe18c42c	-0.14918584
201	0xbca9dc66	-0.020734977
202	0x3cbf26f0	0.023333997
203	0x3d2d4256	0.04229959
204	0x3df8fad9	0.121572204
205	0x3e20ff8c	0.15722483
206	0x3d0105ab	0.031499546
207	0xbbac4fa1	-0.005258516
208	0x3d24774e	0.04015284
209	0x3c18a099	0.009315633
210	0x3d44601a	0.047943212
211	0x3d160ed9	0.036635254
212	0xbd694e0f	-0.056959208
213	0xbb1a41dc	-0.002353779
214	0x3e2efc99	0.17088546
215	0xbcdfb04f	-0.02730575
216	0x3cccf60f	0.025019674
217	0xbcd89f4f	-0.026443152
218	0x3d9976d5	0.074933685
219	0x3d9d659a	0.076853946
220	0x3e0cbec2	0.13744643
221	0x3d44a9a3	0.04801334
222	0x3d33664d	0.043798734
223	0xbca26816	-0.019825023
224	0x3d489785	0.048972625
225	0x3a668734	0.00087939505
226	0x3cc822c3	0.024430638
227	0x3cdab76a	0.026698787
228	0x3da84b59	0.082174964
229	0x3da372de	0.079808936
230	0xbc4784fe	-0.012177704
231	0x3da2a02e	0.07940708
232	0x3cfce636	0.030871492
233	0x3cf72b03	0.030171877
234	0x3d90c57e	0.07068919
235	0x3c9f9699	0.01948099
236	0x3d80b4ba	0.06284471
237	0xb9a71bc4	-0.0003187341
238	0x3bde7f30	0.0067900643
239	0x3da066d0	0.0783211
240	0x3dc7d15f	0.09756731
241	0x3e631ec7	0.2217971
242	0x3db813be	0.089881405
243	0x3d1af2f6	0.03782936
244	0x3dc68a82	0.09694387
245	0x3d97ded7	0.0741555
246	0xbcfba8bb	-0.030720105
247	0x3d54cc02	0.05195237
248	0x3e244c98	0.16044843
249	0x3d2b5c15	0.041835863
250	0x3deecf65	0.11660651
251	0x3d85070c	0.06495485
252	0x3c0ac839	0.008470588
253	0x3c3a2109	0.011360415
254	0xbdc7bf21	-0.09753252
255	0x3dd241f4	0.10266486

dense_5/MatMul_bias f4 [47]
0	0xbdab49c3	-0.08363678
1	0xbe57f7cd	-0.21090622
2	0xbdfd1684	-0.1235781
3	0xbddc6a0a	-0.10762413
4	0xbe0087ec	-0.1255185
5	0xbe11025a	-0.14161053
6	0x3d1f1a52	0.03884346
7	0xbdc7a879	-0.097489305
8	0xbdd1189a	-0.102097705
9	0xbe3dc7a9	-0.18533196
10	0xbda57b60	-0.080801725
11	0xbdf95529	-0.12174446
12	0xbe4d524f	-0.2005093
13	0xbd3f71d4	-0.046739414
14	0xbe11587c	-0.1419391
15	0xbe30e43c	-0.17274565
16	0xbd285b4b	-0.04110269
17	0xbe32e379	-0.17469586
18	0xbd279671	-0.040914956
19	0xbde9f232	-0.11423148
20	0xbdd15bbb	-0.10222574
21	0x3d894620	0.067028284
22	0xbe555c55	-0.20836003
23	0xbdd836c4	-0.10557321
24	0xbda837c3	-0.08213761
25	0xbe22bee8	-0.15893137
26	0xbd4a4e1c	-0.049390897
27	0xbd865ac5	-0.06560282
28	0xbe18f60b	-0.14937608
29	0xbdb0e1dc	-0.08636829
30	0xbd9fcaf8	-0.07802385
31	0xbd93190d	-0.071825124
32	0xbe04faca	-0.12986293
33	0xbddbe2c1	-0.10736609
34	0xbe3624c3	-0.17787461
35	0xbd17ab89	-0.037028823
36	0xbdce8e0e	-0.100856885
37	0xbe254dbc	-0.16142935
38	0xbd872ace	-0.06599961
39	0xbdae39af	-0.08507096
40	0xbdc7f511	-0.097635396
41	0xbe102b70	-0.1407907
42	0xbdd6da7e	-0.10490893
43	0xbe13ee49	-0.14446367
44	0xbdd1b71b	-0.10240003
45	0xbd6e09bf	-0.058114763
46	0xbe0a007f	-0.13476752

dense_5/kernel/transpose f4 [47, 32]
0	0xbe3ce7ca	-0.18447796
1	0xbe2e4969	-0.17020191
2	0xbe1a8d31	-0.15092923
3	0xbe53f06c	-0.20697182
4	0xbe7ae8bf	-0.24502848
5	0x3cd6605f	0.026169
6	0xbe7f1a62	-0.24912408
7	0xbe4dcbe0	-0.20097303
8	0x3da46374	0.08026782
9	0xbe0c9d6f	-0.13731931
10	0x3da34508	0.07972151
11	0xbe381c90	-0.17979646
12	0x3dcdbdcc	0.100459665
13	0xbea1b922	-0.31586558
14	0xbdb186b1	-0.086682685
15	0xbdf3bb89	-0.11901004
16	0xbddf1e1b	-0.10894414
17	0x3e0b7986	0.13620576
18	0x3d882609	0.0664788
19	0x3e325e75	0.17418845
20	0xbedb3dd3	-0.42820606
21	0xbecb5274	-0.39711344
22	0xbcbe5e10	-0.023238212
23	0xbe69b438	-0.22822654
24	0xbda38bbf	-0.07985639
25	0xbe817763	-0.25286397
26	0x3d173b22	0.036921628
27	0xbefdbef4	-0.49559748
28	0xbecd6348	-0.40114808
29	0xbe97d9cf	-0.29658362
30	0xbeb6bfe6	-0.35693282
31	0xbe89ee8b	-0.26939806
32	0xbf00fbbd	-0.5038412
33	0x3d35cbb3	0.044383716
34	0xbe77a20d	-0.24182911
35	0xbf16d29c	-0.58915114
36	0xbf1967bb	-0.59923905
37	0x3cdfdb29	0.027326183
38	0xbdec65e2	-0.1154287
39	0xbe97e6ba	-0.29668218
40	0x3d33420b	0.043764155
41	0xbe847d27	-0.25876734
42	0xbece667e	-0.4031257
43	0xbed20bd1	-0.4102464
44	0xbf2aa44c	-0.6665695
45	0xbea796b6	-0.3273217
46	0x3e0d89fb	0.13822167
47	0xbdb06c90	-0.08614457
48	0xbebd366f	-0.36955592
49	0x3eacf3b2	0.33779675
50	0xbe8a7e7b	-0.27049622
51	0xbeee22a4	-0.46510804
52	0x3dfe808b	0.124268614
53	0xbc90cacd	-0.017674828
54	0xbdf56f6b	-0.11984142
55	0xbe6859a7	-0.2269045
56	0xbe13d26a	-0.14435735
57	0x3dccfee3	0.10009553
58	0xbd17c599	-0.03705368
59	0xbce11aa1	-0.027478518
60	0xbe790eaf	-0.24322008
61	0x3dc3eb52	0.09566368
62	0xbde853ea	-0.1134413
63	0xbe9d6a55	-0.30745187
64	0xbe1178fe	-0.14206311
65	0xbe7ff50c	-0.24995822
66	0xbf2ca82c	-0.6744411
67	0xbee25778	-0.44207358
68	0x3e5115c7	0.20418464
69	0xbea46d37	-0.32114574
70	0xbe96676b	-0.29375777
71	0x3d3b8856	0.045784317
72	0xbf14532d	-0.57939416
73	0xbec9262c	-0.39286935
74	0xbefefdcd	-0.4980301
75	0x3de2da38	0.11076778
76	0xbe99e7a8	-0.30059552
77	0xbef8ec1c	-0.48617637
78	0xbdba894d	-0.09108219
79	0xbda52333	-0.08063354
80	0xbf2048f9	-0.6261135
81	0xbee27176	-0.4422719
82	0xbe8b3ed1	-0.27196363
83	0xbe3d2207	-0.18470012
84	0xbd464d7e	-0.048413746
85	0xbe6fdb6f	-0.23423551
86	0xbe8672cf	-0.26259467
87	0xbbdb0a8e	-0.006684608
88	0xbe7d3cfe	-0.24730298
89	0xbe8bc2d4	-0.2729708
90	0x3dc359cf	0.09538614
91	0xbe4b6b13	-0.19865064
92	0x3e60500a	0.21905532
93	0xbe076deb	-0.13225524
94	0x3e8417b0	0.25799322
95	0xbe8a0450	-0.26956415
96	0xbe1d4ecd	-0.15362091
97	0x3e150806	0.14553842
98	0xbf16fe7f	-0.5898208
99	0x3e902473	0.2815281
100	0xbe9ed6e7	-0.31023332
101	0xbe59cf44	-0.21270472
102	0x3cbcd83e	0.023052331
103	0xbdc319b3	-0.09526386
104	0xbd3c483b	-0.04596732
105	0xbeeab0f7	-0.45838138
106	0xbf495126	-0.7863945
107	0xbd5d05bf	-0.053960558
108	0xbdfdf5d5	-0.12400404
109	0xbdbfce44	-0.09365514
110	0x3ceeba80	0.029141665
111	0xbf297d3d	-0.66206723
112	0xbe555e07	-0.2083665
113	0x3e135821	0.14389087
114	0xbef5fe96	-0.48045796
115	0xbe1d3269	-0.15351261
116	0x3e421756	0.18954214
117	0xbeffc2a4	-0.49953187
118	0xbe446683	-0.1917973
119	0xbb288ced	-0.0025718764
120	0xbe15e182	-0.14636806
121	0xbed3052a	-0.41214877
122	0xbe9be635	-0.30449072
123	0xbeec2053	-0.4611841
124	0xbd002ee0	-0.031294703
125	0xbf08d2bf	-0.53446573
126	0xbde2f710	-0.1108228
127	0x3e2e16d7	0.170009
128	0x3d3c7be9	0.046016607
129	0xbe0bf653	-0.13668184
130	0x3e05f3e1	0.13081314
131	0xbe631af7	-0.22178255
132	0xbe822ef5	-0.2542645
133	0xbe847330	-0.2586913
134	0xbde87999	-0.11351318
135	0xbebd4342	-0.36965376
136	0xbe000ea7	-0.1250559
137	0xbe57471c	-0.2102322
138	0xbefac808	-0.48980737
139	0x3db83f3e	0.089964375
140	0xbe13a086	-0.14416704
141	0xbeca1ce2	-0.3947516
142	0xbc1e36b8	-0.009656601
143	0xbe327581	-0.17427637
144	0xbe06ad7b	-0.13152115
145	0xbdfb45b2	-0.12269153
146	0xbf058a78	-0.5216441
147	0xbe85b7d8	-0.26116824
148	0xbee22292	-0.44167
149	0xbe8944aa	-0.268102
150	0x3d68029d	0.056643117
151	0xbe6c9523	-0.23103766
152	0xbed79921	-0.42109016
153	0xbe23260d	-0.15932484
154	0xbc6e317d	-0.014538166
155	0x3e37933a	0.17927256
156	0xbe21f6a2	-0.15816739
157	0xbe77cb33	-0.24198608
158	0xbe99d0e6	-0.3004219
159	0x3df1c882	0.11805822
160	0xbe82cf39	-0.25548723
161	0x3d9815df	0.074260466
162	0xbe507adb	-0.20359366
163	0xbe456f4b	-0.19280736
164	0xbe9fa1ea	-0.31178218
165	0xbea170c5	-0.3153135
166	0xbe76f8e5	-0.24118383
167	0xbd46057c	-0.048345074
168	0xbe4d49ac	-0.20047635
169	0x3e1d3706	0.15353021
170	0xbf065f48	-0.5248914
171	0x3c3a0fbb	0.0113562895
172	0x3d882534	0.06647721
173	0x3d067d1f	0.03283417
174	0x3dbbe475	0.09174434
175	0x3e2c4e6e	0.16826794
176	0xbebaf33f	-0.36513707
177	0xbd49f374	-0.04930444
178	0xbe4c67a6	-0.19961414
179	0xbe9c4d9e	-0.30527967
180	0xbe39c434	-0.18141252
181	0xbef274e2	-0.473548
182	0xbd2ce831	-0.042213622
183	0xbe8521b8	-0.26002288
184	0xbeb83c7f	-0.35983655
185	0xbe81154b	-0.25211558
186	0xbf2998b0	-0.6624861
187	0xbdcecd0d	-0.10097704
188	0xbde90caa	-0.113793686
189	0xbddbaa83	-0.10725882
190	0x3eaf4a29	0.34236267
191	0xbf292c53	-0.6608326
192	0xbe9e0a2d	-0.30867139
193	0xbeb3622a	-0.3503583
194	0xbee17548	-0.4403479
195	0xbdb4dded	-0.088313915
196	0xbe6c56b8	-0.23079956
197	0xbd8a26dc	-0.06745693
198	0xbf1217c1	-0.57067496
199	0xbec20719	-0.3789604
200	0xbde8529e	-0.11343883
201	0x3eee12fc	0.4649886
202	0xbec5b9b9	-0.38618258
203	0xbd3ac4ec	-0.045597956
204	0x3c47c875	0.012193789
205	0xbf06ca68	-0.526526
206	0xbe9a8256	-0.30177563
207	0xbe81f4ea	-0.25382167
208	0xbdb9aa70	-0.090657115
209	0xbd447cda	-0.04797063
210	0x3de377a2	0.111068025
211	0xbea254f1	-0.3170543
212	0xbea14f7a	-0.31505948
213	0x3bb8def0	0.0056418106
214	0xbe48e007	-0.1961671
215	0xbd4ea70c	-0.050452277
216	0xbf23c1c6	-0.6396755
217	0x3e76d5cc	0.24104995
218	0xbeec2416	-0.4612128
219	0x3d57cd8d	0.052686263
220	0xbdca3c2e	-0.098747596
221	0xbf0d18fd	-0.55116254
222	0x3a0f5927	0.0005468302
223	0x3e0fe6e0	0.14052916
224	0xbea00253	-0.31251773
225	0x3e1b760f	0.15181755
226	0x3df2ea66	0.11861114
227	0xbee24be1	-0.44198516
228	0xbe883aa2	-0.26607233
229	0x3e3315b3	0.17488746
230	0xbd9bcea5	-0.07607774
231	0xbed61c0a	-0.41818267
232	0xbede3125	-0.4339687
233	0x3da081c8	0.07837254
234	0xbd1b037c	-0.03784512
235	0xbd4afbb7	-0.04955646
236	0xbea2f904	-0.3183061
237	0xbe2dff10	-0.1699183
238	0x3ed3c59d	0.41361704
239	0xbebe6e33	-0.3719345
240	0xbdaf9522	-0.08573367
241	0xbea66c16	-0.32504338
242	0xbf238656	-0.63876855
243	0x3d03f6fc	0.032217965
244	0xbec50d82	-0.38486868
245	0xbe23d0f3	-0.15997677
246	0xbec2bdc5	-0.38035408
247	0xbed0499d	-0.40681162
248	0xbe822fa1	-0.25426963
249	0xbe479809	-0.1949159
250	0xbd7da4d7	-0.06192478
251	0x3c9083ca	0.017640967
252	0x3b89d383	0.0042061224
253	0xbe4c3e78	-0.19945705
254	0x3e048816	0.12942538
255	0xbe995890	-0.2995038
